CV_HW5/q7_1_1_model_parameter.pkl (torch_old, 272544 bytes, 4 tensors)

fc1.weight f4 [64, 1024]
-0.04661575 -0.06183258 -0.09006276 -0.084587544 -0.081354804 -0.050304204 -0.08420604 -0.048655745
-0.067123085 -0.08108564 -0.086138085 -0.079776146 -0.0770969 -0.051561806 -0.04878492 -0.07776733
-0.09129575 -0.08785692 -0.07610012 -0.10547043 -0.08946512 -0.050731283 -0.041714046 -0.081101
-0.095482975 -0.07214048 -0.09415248 -0.07656359 -0.08405136 -0.08707269 -0.08522799 -0.05135322
-0.07199778 -0.09841032 -0.089238174 -0.039342187 -0.06749821 -0.07015571 -0.05656406 -0.02006889
-0.057018798 -0.07441858 -0.022985393 -0.010728419 -0.049017612 -0.025232999 -0.048976354 -0.033646975
-0.008252999 -0.04675234 -0.024239276 -0.01480896 -0.026290016 -0.01868972 -0.024992883 -0.005131284
-0.008893819 -0.0327477 -0.043585204 -0.040470894 -0.048210163 -0.07166833 -0.103689656 -0.07290171
-0.07409074 -0.048525177 -0.08889063 -0.021416677 -0.05156055 -0.04136932 -0.0104479985 -0.013056502
0.034433912 0.059265755 0.013274023 0.024014546 0.051692534 0.04157904 0.037614156 0.026314655
0.05081308 0.029940262 0.04621878 0.0001690265 -0.027611416 0.020789409 0.008419859 0.08188586
0.09235792 0.0522031 0.06354556 0.056141775 -0.00940187 -0.0635679 -0.098000325 -0.06680975
-0.0682016 -0.042971455 -0.017405234 -0.067094214 -0.05810729 -0.015007802 -0.019695194 -0.006965653
0.0059360177 0.05627256 0.07866041 0.029024728 0.0641431 0.10460037 0.11832157 0.12292519
0.06753542 0.07766276 0.028891569 -0.010021301 0.012903927 0.0340912 0.079703875 0.13022211
0.09427143 0.12959321 0.22688629 0.15986505 0.0073792897 -0.06771513 -0.10191444 -0.04778842
-0.07432636 -0.036122374 -0.013004883 -0.048732348 -0.023157153 -0.0038692264 0.056053434 0.034289468
0.038139474 0.025118796 0.058179095 0.07495971 0.075983256 0.033842385 0.07627824 0.039767522
0.08338923 0.062283434 -0.03347561 -0.041562214 0.011607783 0.07624024 0.16912037 0.1443147
0.1060826 0.16477141 0.23922268 0.17964566 0.032439824 -0.023050373 -0.008888844 -0.04939748
-0.06982181 -0.03435696 0.004260147 -0.026096024 0.058725037 0.10280899 0.12560089 0.094324656
0.12477779 0.1443204 0.17953561 0.17697152 0.10953984 0.049684893 0.08392295 0.09389698
0.058324136 0.043314844 0.029195324 0.010442236 -0.015588125 0.052531846 0.13933633 0.19216481
0.15365343 0.059669886 -0.046222568 -0.012346188 0.058424145 0.062342953 -0.0023569975 -0.07266817
-0.057796292 -0.04287307 0.01845629 0.09017677 0.10041244 0.122190855 0.11440179 0.18180516
0.20624678 0.24285014 0.26745892 0.25655255 0.17852513 0.09111499 0.05390909 0.042507954
0.030237416 0.028723441 -0.003605877 -0.0047639287 -0.06587272 0.0031958171 0.13952486 0.16123207
0.21124564 0.054998744 -0.0812647 -0.0019427185 0.014060753 0.006972688 -0.010889797 -0.059039958
-0.05853887 -0.056903273 -0.03426327 0.0776809 0.10939119 0.11265781 0.14818664 0.21090198
0.24933474 0.3788205 0.36844984 0.24658561 0.18063954 0.028341535 -0.06732742 -0.066477865
-0.008233178 0.06791119 0.05118876 -0.062248517 -0.10314337 -0.098092586 -0.03910035 0.025487423
-0.021235479 0.02494526 0.002356948 -0.064049624 -0.07917041 -0.038070627 -0.003885005 -0.098624416
00000000: 28f0 3ebd 2944 7dbd d372 b8bd 3c3c adbd
00000010: 599d a6bd c80b 4ebd 3774 acbd 3f4b 47bd
00000020: d477 89bd 3a10 a6bd 2a69 b0bd ad61 a3bd
00000030: fbe4 9dbd 7932 53bd b2d2 47bd 7a44 9fbd
00000040: 44f9 babd 54ee b3bd 61da 9bbd e100 d8bd
00000050: 7d39 b7bd 9bcb 4fbd 59dc 2abd 4818 a6bd
00000060: 948c c3bd 63be 93bd 04d3 c0bd 5fcd 9cbd
00000070: 1f23 acbd 2b53 b2bd 038c aebd c157 52bd
00000080: 9273 93bd 5a8b c9bd 81c2 b6bd 4625 21bd
00000090: 803c 8abd ccad 8fbd b7af 67bd 8367 a4bc
000000a0: 8b8c 69bd c568 98bd dd4b bcbc 40c6 2fbc
000000b0: b1c6 48bd 6fb5 cebc 6e9b 48bd 69d1 09bd
000000c0: 9637 07bc 627f 3fbd 7291 c6bc 48a1 72bc
000000d0: 295e d7bc 2f1b 99bc e0bd ccbc 5424 a8bb
000000e0: 61b7 11bc 7422 06bd 6686 32bd cfc4 25bd
000000f0: 0578 45bd d8c6 92bd 3e5b d4bd 7e4d 95bd
00000100: e3bc 97bd 56c2 46bd 4a0c b6bd 0772 afbc
00000110: 2831 53bd e072 29bd 152e 2bbc f0ea 55bc
00000120: 930a 0d3d a6c0 723d 4a7b 593c 27ba c43c
00000130: 8dbb 533d c94e 2a3d 4d11 1a3d d591 d73c
00000140: 6021 503d 4845 f53c e74f 3d3d b53c 3139
00000150: 5631 e2bc 8d4e aa3c 73f3 093c c6b3 a73d
00000160: 2626 bd3d ebd2 553d 2d24 823d ebf4 653d
00000170: 4d0a 1abc e32f 82bd 65b4 c8bd 8dd3 88bd
00000180: 48ad 8bbd d602 30bd 6c95 8ebc b168 89bd
00000190: e901 6ebd 49e3 75bc d157 a1bc 2240 e4bb
000001a0: ed82 c23b 0e7e 663d b618 a13d 44c5 ed3c
000001b0: 755d 833d b838 d63d 9452 f23d 34c0 fb3d
000001c0: 0350 8a3d a70d 9f3d 03ae ec3c 6230 24bc
000001d0: fe6a 533c 37a3 0b3d c93b a33d f258 053e
000001e0: 6111 c13d 15b4 043e e154 683e aab3 233e
000001f0: f8cd f13b 3bae 8abd 85b8 d0bd cabd 43bd
00000200: 6b38 98bd 0ef5 13bd 6f12 55bc 929b 47bd
00000210: 12b4 bdbc d992 7dbb 4998 653d 1d73 0c3d
00000220: 2338 1c3d efc5 cd3c 344d 6e3d 7a84 993d
00000230: 1c9d 9b3d 509e 0a3d c437 9c3d 45e3 223d
00000240: f9c7 aa3d ea1c 7f3d b91d 09bd 243d 2abd
00000250: 922e 3e3c d823 9c3d e42d 2d3e 3cc7 133e
00000260: d641 d93d d6b9 283e caf6 743e 08f5 373e
00000270: 9fdf 043d 23d4 bcbc 84a2 11bc 0355 4abd
00000280: bdfe 8ebd e2b9 0cbd b498 8b3b 54c7 d5bc
00000290: aa89 703d 858d d23d 859d 003e 492d c13d
000002a0: 7f8b ff3d bac8 133e 2fd8 373e 0638 353e
000002b0: 6c56 e03d 6382 4b3d ccdf ab3d 0f4d c03d
000002c0: 4ae5 6e3d e86a 313d 082b ef3c ea15 2b3c
000002d0: 5665 7fbc a22b 573d 2fae 0e3e dac6 443e
000002e0: 5357 1d3e 6968 743d e053 3dbd aa47 4abc
000002f0: 284e 6f3d 535b 7f3d db77 1abb 0dd3 94bd
00000300: cebb 6cbd ac9b 2fbd a531 973c 99ae b83d
00000310: 0aa5 cd3d 333f fa3d 7c4b ea3d 222b 3a3e
00000320: 5b32 533e b5ad 783e 60f0 883e db5a 833e
00000330: 4bcf 363e 7f9a ba3d c7cf 5c3d d21c 2e3d
00000340: 75b4 f73c 6c4d eb3c 9450 6cbb bb1a 9cbb
00000350: 47e8 86bd ea70 513b 9bdf 0e3e 051a 253e
00000360: c750 583e 5d46 613d 1b6e a6bd d1a2 feba
00000370: 135f 663c 257b e43b 1e6b 32bc e2d3 71bd
00000380: 74c6 6fbd 6813 69bd a557 0cbd 2a17 9f3d
00000390: 7d08 e03d 23b9 e63d 3dbe 173e b0f6 573e
000003a0: 9b51 7f3e c3f4 c13e 75a5 bc3e f080 7c3e
000003b0: 92f9 383e 822c e83c f5e2 89bd 8c25 88bd
000003c0: 74e4 06bc 0615 8b3d 4eab 513d 4df8 7ebd
000003d0: d53c d3bd c4e4 c8bd b027 20bd 00cb d03c
000003e0: 07f6 adbc 005a cc3c 0777 1a3b 732c 83bd
000003f0: 1924 a2bd f2ef 1bbd 919b 7ebb 99fb c9bd

fc1.bias f4 [64]
-0.124984704 -0.08612779 0.09513489 0.043157645 0.015417144 0.07171447 0.009558677 -0.15576911
0.07500587 -0.040227972 0.012322716 -0.07494318 0.049736872 0.054563303 0.02232548 -0.011173236
-0.091561824 0.05503419 0.03551325 -0.024441443 0.0985974 -0.11050998 0.038660973 0.111875854
0.07368739 -0.06145827 -0.11343387 0.020378685 -0.11143739 0.106605805 -0.060692064 0.010400612
0.109863915 -0.02160848 -0.030293604 0.026720155 0.06560375 0.090979934 -0.00831558 0.044658843
0.022838783 -0.09497269 0.06981703 0.00094630034 -0.083811946 0.059074156 -0.12563124 -0.023018004
-0.098603725 0.08716405 0.12695318 0.0784141 0.008601989 0.050014112 -0.080459 0.0438013
0.03766431 -0.0294929 0.03807861 0.03786617 0.09918389 -0.08781817 -0.059095297 0.034977656
00000000: fbf7 ffbd c463 b0bd 15d6 c23d 12c6 303d
00000010: 3098 7c3c 09df 923d ff9b 1c3c f081 1fbe
00000020: ad9c 993d 16c6 24bd 38e5 493c cf7b 99bd
00000030: e4b8 4b3d c57d 5f3d ede3 b63c f30f 37bc
00000040: c484 bbbd 886b 613d 5776 113d 6c39 c8bc
00000050: 6fed c93d 0e53 e2bd f85a 1e3d 2b1f e53d
00000060: 6ae9 963d abbb 7bbd 0450 e8bd 33f1 a63c
00000070: 4939 e4bd 2554 da3d 3e98 78bd 5467 2a3c
00000080: 5500 e13d 4404 b1bc 4b2a f8bc 3ae4 da3c
00000090: 425b 863d b053 ba3d 123e 08bc 31ec 363d
000000a0: 6618 bb3c 0b81 c2bd 3bfc 8e3d 2411 783a
000000b0: 99a5 abbd bef7 713d 7aa5 00be 4190 bcbc
000000c0: c0f0 c9bd 1183 b23d 0400 023e 9297 a03d
000000d0: 5bef 0c3c 99db 4c3d b0c7 a4bd fe68 333d
000000e0: e445 1a3d 189b f1bc 51f8 1b3d 8f19 1b3d
000000f0: ec20 cb3d 03da b3bd e90d 72bd bb44 0f3d

fc2.weight f4 [36, 64]
-0.14109787 -0.25731835 1.1737406 0.12527616 0.08386072 0.23895715 0.09142501 0.53158104
0.98754257 -1.5181185 0.4764639 -0.030244725 0.63589954 0.12391938 0.64480394 -0.25056267
-0.4379987 0.25325516 -0.17214924 -1.1475852 -0.78111386 -0.11193943 -1.1977378 0.45975122
0.08594413 0.54918504 -0.006938126 0.34930727 0.16450453 1.057559 -0.8054116 0.52417964
0.3572291 0.96562815 0.31003463 0.31838503 0.6433037 1.0085981 -0.5507531 -0.17423204
-1.1722509 -0.109210834 -0.26337287 1.2423661 -0.97776204 0.060867425 -1.0976347 0.50976896
-0.43062302 -0.62375546 -0.7541617 -0.07723157 -0.41515532 0.20196737 -0.48453897 1.3441632
-0.17800975 -1.2301923 0.61744004 -0.36133334 1.1744773 0.39602795 -0.8795996 -0.3045266
0.5268162 -0.35427675 -0.1086199 0.5704418 -0.3234867 0.65020204 -0.9899103 -0.7241672
0.37050804 -0.79949725 -0.39465725 -0.118995294 -0.8176073 -0.37789857 -0.6292255 -0.7312332
1.1847353 0.50846106 0.026527133 0.04253208 0.36243233 -0.3618796 -0.49093893 0.4972337
-0.009754216 0.19510606 -1.0465487 0.6088365 -1.0755044 0.7908474 -1.1838436 1.1263341
-0.6144192 -0.17067653 -0.794863 0.87772727 0.76207775 0.5590391 -0.484141 0.52263486
0.6988989 -0.2826958 0.62061656 0.18070969 -0.6362497 0.15616845 -0.7188722 0.48513827
-1.158744 1.146683 0.58612245 0.13801254 -0.3871518 0.5316438 0.4106751 0.45318365
-0.28581735 0.7158495 0.76142836 -0.3576587 0.043934856 -0.109672695 -0.84416145 0.97375256
0.33708757 1.0192223 -0.7167481 0.78964144 -0.56258 0.7519295 0.8063771 -0.34579727
0.5749905 0.8897517 -0.17702627 0.7951454 0.3167979 -1.1967069 0.2922201 -0.40551853
0.8126816 -0.14561833 0.938361 0.065619044 1.2229087 -0.37471417 -0.19557537 -1.1651117
0.0042637456 -0.5239837 -0.02114801 -0.4875178 0.013274929 0.38414398 -0.029904364 -0.48358142
-1.0680988 0.9972805 -1.2559369 -1.6241442 0.17233214 0.028477216 -0.11042068 -0.12752204
0.63088214 0.067004375 0.7018061 -0.19307671 0.027044397 -0.3528969 0.16662143 0.86730355
1.7195367 0.6369138 1.1568493 -0.44800702 -0.12155459 -1.7232871 -0.27327114 -0.7138245
-0.29020864 0.3900719 0.28638333 -0.26911852 -1.4471381 1.4224558 0.33020005 -1.3620389
0.17758088 -0.19619267 -0.42697144 0.42589173 0.519167 0.9035697 -0.7990338 0.43559265
-0.4304532 0.09263293 -0.32355782 -0.54607993 -0.21695873 -1.0046009 0.4193777 -0.82797736
0.5262175 -0.038174402 0.3451468 1.0585637 -0.07713674 0.3596093 -0.97754216 1.4886523
0.06933669 0.954038 -0.028512895 -1.3080602 -0.27305633 0.31814596 0.41042325 0.78199327
1.2392911 -0.46655416 -0.69894904 -0.8191356 0.77101606 -0.9663695 -1.5243778 -0.61017364
0.2565216 1.140346 0.03491189 -1.3664682 0.32336688 1.0102152 -0.5402489 0.36469418
-0.44481772 0.4102148 0.33045256 0.32904547 -0.91476345 1.3016325 0.09652623 -0.52066326
0.6797642 0.60832775 -1.0131297 0.46404865 1.4568455 -1.1554307 -0.8801483 -0.9759821
00000000: f67b 10be 3bbf 83be 223d 963f 6548 003e
00000010: 2bbf ab3d 2fb1 743e 093d bb3d b215 083f
00000020: 97cf 7c3f b551 c2bf 14f3 f33e c9c3 f7bc
00000030: 50ca 223f 72c9 fd3d df11 253f c049 80be
00000040: 5e41 e0be a9aa 813e e447 30be 12e4 92bf
00000050: 14f7 47bf 8040 e5bd 794f 99bf 8364 eb3e
00000060: 7a03 b03d 6497 0c3f 3859 e3bb 67d8 b23e
00000070: e073 283e 185e 873f 742f 4ebf a330 063f
00000080: bce6 b63e 6833 773f dcbc 9e3e 5d03 a33e
00000090: 8daf 243f be19 813f 28fe 0cbf e269 32be
000000a0: 510c 96bf eea9 dfbd cfd8 86be da05 9f3f
000000b0: 9d4e 7abf 1f50 793d 4b7f 8cbf 3880 023f
000000c0: 9f7a dcbe 70ae 1fbf be10 41bf 962b 9ebd
000000d0: 3d8f d4be 89d0 4e3e 7e15 f8be 8a0d ac3f
000000e0: 3048 36be f176 9dbf 8d10 1e3f af00 b9be
000000f0: 4655 963f 2dc4 ca3e 702d 61bf e9ea 9bbe
00000100: 6ddd 063f c363 b5be 1c74 debd 7908 123f
00000110: 0ca0 a5be a473 263f c36a 7dbf 0663 39bf
00000120: 3bb3 bd3e daab 4cbf 8410 cabe ceb3 f3bd
00000130: b64e 51bf ec7b c1be ec14 21bf 1932 3bbf
00000140: 68a5 973f 812a 023f 6e4f d93c 1e36 2e3d
00000150: bb90 b93e 4848 b9be 595c fbbe 6a95 fe3e
00000160: 26d0 1fbc e2c9 473e 4ff5 85bf b5dc 1b3f
00000170: 21aa 89bf fa74 4a3f 3088 97bf b72b 903f
00000180: 944a 1dbf d4c5 2ebe 247c 4bbf bcb2 603f
00000190: 8717 433f 301d 0f3f 54e1 f7be 66cb 053f
000001a0: 0aeb 323f 81bd 90be bae0 1e3f f60b 393e
000001b0: 43e1 22bf 9fea 1f3e 0208 38bf 0b64 f83e
000001c0: b951 94bf 82c6 923f 1f0c 163f 2953 0d3e
000001d0: c338 c6be cf19 083f 0244 d23e b007 e83e
000001e0: a756 92be ea41 373f f8ec 423f 0b1f b7be
000001f0: 09f5 333d 149c e0bd f71a 58bf d947 793f
00000200: be96 ac3e e075 823f ce7c 37bf f125 4a3f
00000210: 3e05 10bf 747e 403f bb6e 4e3f 570c b1be
00000220: 9432 133f c4c6 633f 6046 35be a68e 4b3f
00000230: 5633 a23e b12d 99bf df9d 953e 20a0 cfbe
00000240: e70b 503f f91c 15be 6d38 703f 4763 863d
00000250: 4688 9c3f 89da bfbe e944 48be 6122 95bf
00000260: e4b6 8b3b cc23 06bf 973e adbc ef9b f9be
00000270: 167f 593c 85ae c43e fff9 f4bc fc97 f7be
00000280: 76b7 88bf c64d 7f3f 8ac2 a0bf f5e3 cfbf
00000290: d677 303e 0d49 e93c 3d24 e2bd 2395 02be
000002a0: 7e81 213f 9739 893d 91a9 333f e7b5 45be
000002b0: 368c dd3c e7ae b4be cf9e 2a3e 9b07 5e3f
000002c0: c719 dc3f c80c 233f a313 943f 2d61 e5be
000002d0: 9df1 f8bd ac94 dcbf 32ea 8bbe 34bd 36bf
000002e0: 3a96 94be 81b7 c73e d6a0 923e e7c9 89be
000002f0: d23b b9bf 0813 b63f fb0f a93e 4a57 aebf
00000300: c3d7 353e bbe6 48be 009c dabe 7b0e da3e
00000310: 21e8 043f 5850 673f 7b8d 4cbf 0006 df3e
00000320: 5d64 dcbe 55b6 bd3d 5fa9 a5be e5cb 0bbf
00000330: 6e2a 5ebe c396 80bf adb8 d63e 53f6 53bf
00000340: 31b6 063f c35c 1cbd 15b7 b03e 047f 873f
00000350: def9 9dbd b61e b83e 3440 7abf 298c be3f
00000360: 6500 8e3d d63b 743f e093 e9bc 846e a7bf
00000370: 0ace 8bbe 07e4 a23e ff22 d23e b630 483f
00000380: 17a1 9e3f 30e0 eebe 53ee 32bf dfb2 51bf
00000390: 4f61 453f fe63 77bf d01e c3bf 5734 1cbf
000003a0: cd56 833e dcf6 913f c5ff 0e3d 6ee8 aebf
000003b0: 5890 a53e bb4e 813f c04d 0abf 32b9 ba3e
000003c0: 26bf e3be ad07 d23e 1431 a93e a678 a83e
000003d0: f02d 6abf e59b a63f 8baf c53d 304a 05bf
000003e0: 0705 2e3f 5ebb 1b3f 3cae 81bf c997 ed3e
000003f0: ea79 ba3f 27e5 93bf 6651 61bf f7d9 79bf

fc2.bias f4 [36]
-0.11049662 -0.09748759 0.035062544 0.1724554 0.15593758 0.26608709 -0.16974686 -0.10372991
0.21185356 -0.049982246 -0.1273367 -0.17968245 -0.07135583 -0.29045284 -0.037829787 -0.11800701
-0.3563766 -0.1266271 0.18304515 -0.0041404758 -0.051623847 0.20184083 -0.15123689 0.0841888
0.33237737 0.22965543 0.015072496 0.024440264 -0.050183516 -0.18884084 0.19881651 0.2574789
-0.116548896 0.11713513 0.02640703 -0.10596057
00000000: 0d4c e2bd 93a7 c7bd be9d 0f3d 2698 303e
00000010: 1aae 1f3e 913c 883e 1fd2 2dbe 5970 d4bd
00000020: 24f0 583e 2fba 4cbd 8d64 02be adfe 37be
00000030: 0123 92bd 3cb6 94be 68f3 1abd a9ad f1bd
00000040: fe76 b6be 89aa 01be 3070 3b3e d4ac 87bb
00000050: 8773 53bd 5daf 4e3e d8dd 1abe 2d6b ac3d
00000060: 5e2d aa3e cb2a 6b3e a1f2 763c f336 c83c
00000070: 3b8d 4dbd 7e5f 41be 8e96 4b3e 46d4 833e
00000080: 30b1 eebd 8be4 ef3d 8e53 d83c db01 d9bd
