CV_HW5/q7_1_2_model_parameter.pkl (torch_old, 32953 bytes, 6 tensors)

fc1.0.weight f4 [10, 784]
0	0xbc42c618	-0.01188805
1	0xbce4fb77	-0.027951939
2	0xbce62122	-0.02809197
3	0x3c195fe7	0.009361244
4	0x3a79872a	0.0009518737
5	0xbcb64683	-0.02225042
6	0x3cf2d22f	0.029641239
7	0x3cc39770	0.023875922
8	0x3bd9f4fe	0.00665152
9	0xbcbaa00c	-0.022781394
10	0x3cbb2707	0.022845758
11	0xbc2e8c17	-0.010653517
12	0x3c165fb0	0.009178087
13	0xbcefaf6a	-0.029258449
14	0x3ccf46d6	0.025302332
15	0x3cf60b9a	0.030034829
16	0xbd1038a3	-0.035210263
17	0x3cc63943	0.024197226
18	0xbb935010	-0.004495628
19	0xbcfe8543	-0.031069404
20	0xbd27e118	-0.04098615
21	0x3c8f86e5	0.017520377
22	0xbc6d9a76	-0.014502158
23	0xbd3faa28	-0.046793133
24	0x3c294d8e	0.010333432
25	0xbc3bc5c2	-0.011460723
26	0xbbe66406	-0.0070309667
27	0x3d023b95	0.031795103
28	0x3af45d81	0.0018643589
29	0xbaa072e3	-0.001224127
30	0xbc504543	-0.012711826
31	0xbc04c881	-0.0081044445
32	0x3bb31404	0.0054650325
33	0xbb272a7d	-0.0025507503
34	0x3d3891d4	0.045060948
35	0x3b4c1674	0.0031141313
36	0x3d394f31	0.04524154
37	0x3a36a076	0.00069666596
38	0x3d04a1ff	0.032381054
39	0x3cc2f127	0.023796631
40	0x3c1c382b	0.009534876
41	0xbc6af562	-0.01434073
42	0x3cf80962	0.030277912
43	0xb9d81740	-0.00041216053
44	0xbcf55d4d	-0.029951716
45	0xbd11c191	-0.03558499
46	0x3c947ba9	0.018125372
47	0x3c8f3343	0.017480498
48	0xbcd17fbc	-0.025573604
49	0x3cc8ee09	0.024527567
50	0x3d049420	0.032367826
51	0xbc9f3974	-0.019436575
52	0x3b4a6a3f	0.0030886082
53	0xba4e5729	-0.0007871264
54	0x3c96ee6c	0.018424235
55	0xbc965d59	-0.018355059
56	0xba7b20ef	-0.00095797976
57	0x3cc0d6be	0.023539897
58	0xbbd8670b	-0.0066040806
59	0xbca0bf79	-0.019622551
60	0xbcd29e97	-0.025710387
61	0x3c71853c	0.014741238
62	0x3b700607	0.0036624686
63	0x3caf58a7	0.021404577
64	0x3cfff7f9	0.031246172
65	0x3d706b9e	0.05869638
66	0xbbbd4942	-0.0057765553
67	0x3b778e04	0.0037773857
68	0x3bae3181	0.00531596
69	0x3cad0091	0.021118434
70	0xbc9ed984	-0.019390829
71	0x3cb2ef38	0.021842584
72	0xbc946128	-0.018112734
73	0xbc230be0	-0.009951562
74	0xbd041855	-0.032249767
75	0xbc9899f4	-0.018628098
76	0xbc198ad4	-0.009371478
77	0xbd09e77b	-0.033668023
78	0xbca46074	-0.020065524
79	0x3bf7da9a	0.007563901
80	0x3cf77f2b	0.030212006
81	0x3a0d1a89	0.0005382677
82	0xbbbd7bd3	-0.0057825833
83	0x3c76d08b	0.015064369
84	0xbc9e6cfc	-0.019339077
85	0x3bdbe45f	0.0067105736
86	0x3c721b84	0.014777068
87	0xbcb349a6	-0.021885704
88	0x3d006355	0.03134473
89	0x3c465390	0.012104884
90	0xbc0f2932	-0.008737849
91	0xbd75895b	-0.059945446
92	0xb9d3df84	-0.00040411588
93	0x3bdfc76f	0.0068291943
94	0x3cb97fa4	0.022643872
95	0x3c79a28b	0.015236507
96	0x3d02cc63	0.0319332
97	0x3c48f219	0.012264752
98	0xbc1cdd8e	-0.009574307
99	0x3d05bfb2	0.032653518
100	0x3b24ef3b	0.0025167007
101	0x3d31126c	0.04323046
102	0x3d3e2a2d	0.04642694
103	0x3d21ebad	0.0395314
104	0xbcf2ecba	-0.029653896
105	0xbd96ec20	-0.07369256
106	0xbd15ddfe	-0.03658866
107	0x3bb78f4c	0.005601799
108	0xbc88f696	-0.016719144
109	0xbc4dc0d1	-0.012558178
110	0x3cce8c19	0.025213288
111	0xbcbda5a8	-0.02315028
112	0x3cba09b9	0.022709714
113	0xbc96ee6c	-0.018424235
114	0x3d422cd6	0.04740604
115	0x3d464bdf	0.0484122
116	0x3b43db3f	0.002988532
117	0xb9703584	-0.0002290812
118	0xbdc9278b	-0.09821995
119	0xbd67be0d	-0.05657773
120	0x3c121a35	0.008917381
121	0x3d0739c0	0.03301406
122	0xbb78904c	-0.0037927805
123	0x3c0487f6	0.008089056
124	0x3d03381f	0.032035943
125	0xbb91673f	-0.0044373567
126	0xbce64c2e	-0.028112497
127	0x3c1c1ac1	0.009527863
128	0x3d01d095	0.03169306
129	0x3cc70d24	0.024298258
130	0x3d1fb382	0.03898955
131	0x3d266437	0.040622916
132	0xbcdc6cd9	-0.026907371
133	0xbca76778	-0.02043508
134	0xbca0bdb5	-0.01962171
135	0xbb6e1630	-0.0036329143
136	0xbcdbd18d	-0.02683332
137	0x3c724027	0.014785803
138	0x3d03edcc	0.032209203
139	0x3a9fcdc5	0.0012192061
140	0xbc71650a	-0.014733562
141	0xbc24f4c2	-0.01006812
142	0x3cf777b9	0.030208455
143	0xbd0f0ee7	-0.03492632
144	0xbb333e22	-0.0027350266
145	0x3d24dbab	0.040248554
146	0xbcd976bc	-0.026545875
147	0xbc201358	-0.009770237
148	0x3c66d49c	0.014088776
149	0xbcb87d0b	-0.022520563
150	0xbbdfc4a8	-0.006828863
151	0x3d01b920	0.03167069
152	0x3cf7eb25	0.030263493
153	0x3cd88f4d	0.026435519
154	0x3d02d484	0.031940952
155	0xbcef549c	-0.02921515
156	0xbc2c0319	-0.010498785
157	0x3c7db8fa	0.015485996
158	0x3cd0d2d6	0.02549116
159	0x3d1c74f8	0.038197488
160	0x3c814df4	0.015784241
161	0x3cde9d32	0.027174566
162	0xbc4ace10	-0.012378231
163	0xbd2794d0	-0.040913403
164	0xbc6919c5	-0.014227335
165	0xbd0e4efa	-0.034743287
166	0xbc357174	-0.011074413
167	0xbbb1e3a3	-0.0054287477
168	0xbb8d9d15	-0.004321704
169	0xbcaadfc2	-0.02085865
170	0x3d031268	0.031999975
171	0x3c83e2bd	0.016099328
172	0xbd0c41cc	-0.034242436
173	0xbb4e1619	-0.0031446277
174	0x3cc38331	0.023866268
175	0x3d04aec9	0.03239325
176	0xbd0f5583	-0.03499366
177	0xbd0eb662	-0.034841903
178	0xbd008ec4	-0.031386152
179	0x3ce3ba04	0.02779866
180	0x3cab4b41	0.020909907
181	0x3ce07d2b	0.027403435
182	0xbcf74667	-0.030184938
183	0x3cf9cfe2	0.030494634
184	0xbcce31ab	-0.025170168
185	0xbc0b6355	-0.008507569
186	0xbbc08c67	-0.0058761123
187	0x3bb26b4a	0.0054449188
188	0x3bb8aaff	0.0056356187
189	0xbced8f7c	-0.028999083
190	0x3b41e1ac	0.0029583974
191	0x3c3f958b	0.011693369
192	0x3cc26234	0.023728468
193	0x3cde1f70	0.0271146
194	0x3bc40f0a	0.005983238
195	0x3c9b61da	0.018967558
196	0x3c5e0300	0.01355052
197	0x3d051619	0.032491777
198	0x39f4e700	0.00046711415
199	0xbcd9b84e	-0.026577141
200	0xbc834e6a	-0.016028602
201	0xbc3c1b1c	-0.011481073
202	0x3c0915a4	0.008366976
203	0x3c014f30	0.007892415
204	0xbcf8a708	-0.030353084
205	0x3c4707dc	0.01214787
206	0xbb9719f0	-0.0046112463
207	0xbd0bce74	-0.034132436
208	0x3d0bdfb7	0.034148898
209	0x3be465e0	0.0069701523
210	0x3cd9a2dc	0.026566915
211	0xbcc3ce53	-0.023902094
212	0xbbe48938	-0.0069743656
213	0x3ccd997e	0.025097605
214	0xbb728620	-0.0037006214
215	0xbc42d6dc	-0.011892047
216	0xbc171346	-0.009220904
217	0x3c8668ec	0.016407453
218	0x3ccac386	0.024751436
219	0xbb470360	-0.0030367002
220	0xbbfa1148	-0.0076314546
221	0x3c9c15c0	0.01905334
222	0xbacb2f60	-0.001550179
223	0xbce398dc	-0.02778285
224	0x3c8278dc	0.01592677
225	0x3d10a7ef	0.035316404
226	0x3cb6992e	0.022289839
227	0x3ccc93d8	0.024972841
228	0xbbdbefe4	-0.006711947
229	0xba97e4c0	-0.0011588559
230	0xbc12cc20	-0.0089598
231	0xbca479a5	-0.020077536
232	0xbc4e9798	-0.012609385
233	0xbce8f0a8	-0.028435066
234	0x3c4de588	0.012566932
235	0x3b717d10	0.0036848225
236	0xbce72d38	-0.028219804
237	0xbcfd32ce	-0.030908015
238	0xbcb47403	-0.022027975
239	0xbcd29c33	-0.025709247
240	0x3c0879e0	0.0083298385
241	0x3cb811da	0.02246945
242	0x3c99da42	0.018780831
243	0xba09d580	-0.0005257949
244	0x3cec6292	0.028855596
245	0xbcb980c3	-0.022644406
246	0xbc660166	-0.014038419
247	0x3be92690	0.0071151927
248	0xbcaf28b8	-0.02138172
249	0xbd038c76	-0.032116376
250	0xbc26776a	-0.0101603065
251	0x3c7601c8	0.015015073
252	0xbc066e2e	-0.00820498
253	0x3cf164f2	0.02946708
254	0xbbe6a3b8	-0.0070385598
255	0xbc8b791c	-0.017025523

fc1.0.bias f4 [10]
0	0xbca7ee6e	-0.020499434
1	0x3d6b9b91	0.057521407
2	0x3c312de9	0.0108141685
3	0x3b02e944	0.0019975463
4	0xbb9d8048	-0.004806552
5	0x3d53dda7	0.051725056
6	0x3cc9db96	0.02464084
7	0x3cbf0777	0.02331899
8	0xbda9b9b1	-0.08287371
9	0xbc8d2882	-0.01723123

conv1.0.weight f4 [2, 1, 3, 3]
0	0x3df3694f	0.118853204
1	0x3ef5e44c	0.4802574
2	0x3eacbafc	0.33736408
3	0xbdf72ab1	-0.120686896
4	0x3f0ba140	0.5454292
5	0x3e4e3a80	0.20139503
6	0x3e01d6fe	0.1267967
7	0x3dc622f3	0.09674635
8	0xbc9dfb5e	-0.0192849
9	0x3e66af80	0.22527885
10	0x3f4409c5	0.7657741
11	0x3e2134c1	0.1574278
12	0x3e98512e	0.29749435
13	0x3f2c8e31	0.67404467
14	0x3f24505a	0.64185107
15	0x3c4c021a	0.012451673
16	0xbc92e6ac	-0.017932259
17	0x3e332759	0.17495479

conv1.0.bias f4 [2]
0	0x3a257f2c	0.00063132006
1	0x39d1ebee	0.00040039368

conv1.2.weight f4 [4, 2, 3, 3]
0	0xbde8d049	-0.11367852
1	0xbceb4269	-0.02871819
2	0x3e4d7e6e	0.2006776
3	0x3c91dcbf	0.017805455
4	0x3e88c9e3	0.26716527
5	0x3e12f48f	0.14351104
6	0x3e06e39c	0.13172764
7	0xbd4b94c3	-0.049702417
8	0x3e38772f	0.18014215
9	0x3e53a041	0.20666601
10	0xbdcfa25b	-0.10138389
11	0x3d1aac56	0.03776201
12	0x3e7f3bd9	0.24925174
13	0xbd090fbc	-0.03346227
14	0x3e930eba	0.28722173
15	0xbe2f62e2	-0.17127565
16	0x3e88e445	0.26736656
17	0x3e97b776	0.29632157
18	0x3de288c6	0.11061244
19	0x3dca4b3a	0.098776296
20	0xbc8f8a18	-0.017521903
21	0xbe28912e	-0.16461632
22	0xbdeb4c0a	-0.11489113
23	0xbe6292ca	-0.22126308
24	0xbe5cd34a	-0.21564975
25	0xbd943628	-0.07236892
26	0xbdfba25b	-0.12286826
27	0xbe26ad14	-0.16276962
28	0xbe3b9d87	-0.1832181
29	0x3da4d572	0.08048524
30	0x3df5b67e	0.11997698
31	0x3d68ab44	0.056803957
32	0x3de0913a	0.109652
33	0x3d8beb36	0.06831972
34	0x3d943a96	0.07237737
35	0x3dc7909a	0.097443774
36	0x3e26b2c5	0.16279133
37	0x3d91c530	0.07117689
38	0xbe61d14c	-0.22052497
39	0xbe4c6c36	-0.19963154
40	0xbe2b538f	-0.16731094
41	0xbdf571c0	-0.11984587
42	0x3cce02f4	0.025147893
43	0x3e003e8b	0.12523858
44	0x3c81c2b1	0.015839906
45	0xbe50ad4d	-0.20378609
46	0x3e5e3e4b	0.2170345
47	0xbce97a26	-0.028500628
48	0xbe28013f	-0.16406725
49	0xbe68900e	-0.22711203
50	0x3d2ab159	0.04167304
51	0xbe2d09eb	-0.16898315
52	0xbe3f7ef0	-0.18700767
53	0xbe5e6b83	-0.217207
54	0x3e87b1ec	0.2650293
55	0x3e830bd0	0.2559495
56	0x3dbfb473	0.0936059
57	0x3e9b915a	0.30384332
58	0x3ec54fda	0.38537484
59	0x3e321a67	0.17392884
60	0x3e448f92	0.19195393
61	0xbcd20fa0	-0.025642216
62	0xbe151563	-0.1455894
63	0x3efbf0a3	0.4920703
64	0x3f039af4	0.51408315
65	0x3e6036d2	0.21895912
66	0x3f034a8a	0.5128561
67	0x3ee6b0f5	0.45056883
68	0x3dce1134	0.10061875
69	0x3eb39320	0.35073185
70	0x3ec1da6c	0.37861955
71	0x3d6c1a29	0.057642136

conv1.2.bias f4 [4]
0	0xbe208efe	-0.15679547
1	0xbe4703a6	-0.19434986
2	0x3f010b4f	0.5040788
3	0xb8aa74d5	-8.127993e-05
